curve_gen/cg_model.pt (torch, 839835 bytes, 18 tensors)

gru.weight_ih_l0 f4 [288, 14]
0	0x3efcf8e3	0.49408635
1	0xbd51c3cd	-0.05121212
2	0xbc63f55d	-0.01391348
3	0xbd5005b3	-0.050786685
4	0xbd75c7dc	-0.060005054
5	0x3e0a3cec	0.13499802
6	0xbcc53807	-0.024074567
7	0x3d160895	0.03662928
8	0x3c506647	0.012719697
9	0xbd8c6157	-0.068545036
10	0xbd4d2c49	-0.05009106
11	0x3bd1d673	0.006403738
12	0x3b8c2864	0.004277276
13	0xbd9c8f91	-0.076445706
14	0x3e9346dd	0.28765002
15	0x3e543cc9	0.20726313
16	0x3d0cf213	0.034410547
17	0xbdebe2c3	-0.11517861
18	0xbe1e60ae	-0.15466568
19	0xbe27e02c	-0.16394109
20	0x3dfbe0d7	0.12298744
21	0xbced2553	-0.028948462
22	0x3e0381af	0.12842439
23	0x3e01043e	0.12599275
24	0xbc25a982	-0.010111215
25	0x3de959c2	0.11394073
26	0xbd90dd48	-0.07073456
27	0x3c6c86a5	0.014436399
28	0xbdfc8915	-0.12330834
29	0xbea74e3b	-0.32676873
30	0x3e1f9689	0.15584768
31	0x3e1b4ecb	0.15166776
32	0x3e12735a	0.14301816
33	0x3dc877f2	0.09788503
34	0x3e20fe44	0.15721995
35	0x3c996307	0.018723978
36	0x3e3e4757	0.18581901
37	0x3df629bc	0.12019679
38	0x3d011fb4	0.031524375
39	0x3e108337	0.14112554
40	0x3e308388	0.17237675
41	0x3e27c677	0.16384302
42	0xbe71cdd3	-0.23613672
43	0x3c348091	0.011016981
44	0xbd9d8863	-0.07692029
45	0x3da8c270	0.08240211
46	0xbc87894c	-0.01654496
47	0xbd40d8cf	-0.047081765
48	0x3d963185	0.07333664
49	0xbe09bd7f	-0.13451193
50	0xbdfd5d96	-0.12371366
51	0xbdaee1ca	-0.085391596
52	0x3cd8d2ea	0.02646776
53	0x3d95b650	0.07310164
54	0xbd8d2db1	-0.068934806
55	0x3e065223	0.1311727
56	0x3ee88b5f	0.45418832
57	0x3d63dd1c	0.05563079
58	0x3dcccfc4	0.10000566
59	0xbcf59c4e	-0.029981758
60	0xbd20ba76	-0.039240323
61	0x3e02ecc5	0.12785633
62	0x3dfc2f28	0.12313682
63	0xbde962a5	-0.11395768
64	0x3db550c9	0.08853299
65	0x3d4563d7	0.048190918
66	0x3d682fb2	0.05668611
67	0x3cdeb839	0.027187454
68	0x3d1b118e	0.03785854
69	0x3e62afd2	0.22137383
70	0x3e6e0004	0.23242193
71	0xbe961d4f	-0.29319236
72	0xbd8ac93a	-0.06776662
73	0xbd93d145	-0.07217649
74	0x3dba3c4d	0.09093533
75	0x3df56bda	0.11983462
76	0xbd731497	-0.059345808
77	0xbe0329db	-0.12808935
78	0x3c18eb69	0.00933347
79	0xbcc08572	-0.023501132
80	0xbd1edd96	-0.03878554
81	0x3de0977d	0.10966394
82	0xbd86e46d	-0.065865375
83	0x3ceee947	0.02916397
84	0xbeabb0c5	-0.33533302
85	0x3dce98b3	0.10087719
86	0x3dd3edde	0.10348104
87	0x3d03c70f	0.03217226
88	0x3cb89fd5	0.022537151
89	0x3d8283f1	0.06372822
90	0x3e950902	0.29108435
91	0xbe182981	-0.14859582
92	0x3dcdf9c5	0.100574054
93	0x3d98ce18	0.07461184
94	0xbd1e6e1e	-0.038679235
95	0x3d2d6da2	0.042340882
96	0x3d709bd3	0.058742356
97	0x3e461356	0.19343314
98	0x3e5f87b5	0.21829112
99	0x3d8b0c05	0.06789402
100	0xbdb63636	-0.08897059
101	0xbd32eab9	-0.04368088
102	0x3d2cb1fd	0.04216193
103	0x3cfbe283	0.030747658
104	0xbe075d6b	-0.1321923
105	0xbdc93a07	-0.09825521
106	0x3d1b5a74	0.03792806
107	0x3dd38bb5	0.103293814
108	0x3d957fba	0.072997525
109	0x3de82c06	0.11336522
110	0x3bba4ff4	0.0056858007
111	0x3e603348	0.21894562
112	0xbdcac195	-0.09900204
113	0xbbe7a162	-0.007068799
114	0x3a93beca	0.001127207
115	0xbd056af4	-0.0325727
116	0x3df0eb73	0.117636584
117	0x3c59c357	0.013291202
118	0x3e058084	0.13037306
119	0x3e232fb1	0.15936162
120	0x3dffdf25	0.12493733
121	0x3ddf610f	0.10907184
122	0xbd1064bc	-0.035252318
123	0x3d596ff4	0.053085282
124	0xbd71e489	-0.05905584
125	0x3e6bf67f	0.2304325
126	0xbead44cd	-0.33841553
127	0x3e03b19c	0.12860721
128	0x3cc912cc	0.024545096
129	0xbdbc6efc	-0.09200856
130	0xbd6006e3	-0.054694068
131	0x3d836444	0.064156085
132	0xbd5ba898	-0.05362758
133	0x3e054cf2	0.13017634
134	0xbd38b062	-0.045090087
135	0xbc8526a7	-0.016253782
136	0xbe028de5	-0.12749441
137	0x3d4089aa	0.047006287
138	0x3db0a502	0.08625223
139	0xbc93c148	-0.0180365
140	0x3e09cb28	0.13456404
141	0x3dd96f89	0.10616977
142	0xbe483619	-0.19551887
143	0x3d800217	0.062503986
144	0xbd303e15	-0.043027956
145	0x3ea9d17c	0.33167636
146	0x3d3a5b13	0.04549701
147	0xbd644d20	-0.055737615
148	0xbc6ab5c0	-0.014325559
149	0xbd38b51c	-0.045094594
150	0x3d5cf217	0.053941812
151	0x3c7cc8e6	0.015428757
152	0x3e1ae523	0.15126471
153	0x3d206697	0.039160337
154	0xbebe70fa	-0.3719557
155	0x3cdaa51d	0.02669006
156	0x3db648dc	0.089006156
157	0x3d14dca7	0.036343243
158	0x3daaaa1f	0.08333229
159	0xbd86676b	-0.06562694
160	0x3e9a096b	0.3008531
161	0x3d0db490	0.034596026
162	0xbc809219	-0.015694665
163	0xbd996eec	-0.0749186
164	0xbd9b788e	-0.07591353
165	0xbca39263	-0.019967264
166	0xbd779bba	-0.060451247
167	0xbdaf50d6	-0.0856034
168	0xbe879d5d	-0.26487246
169	0x3e17314a	0.14764896
170	0xbdc25a32	-0.0948986
171	0xbd24f4e6	-0.040272616
172	0x3c24a013	0.01004793
173	0xbc0903b5	-0.0083627
174	0xbe5eb42a	-0.21748415
175	0xbd34b91d	-0.04412185
176	0xbe4d918d	-0.20075054
177	0xbdf098ab	-0.11747869
178	0xbe082c11	-0.1329806
179	0x3bc7e944	0.0061008055
180	0x3e1871e6	0.14887199
181	0xbe72389e	-0.2365441
182	0xbe10bad6	-0.14133772
183	0xbdfd099a	-0.12355347
184	0x3e431ffe	0.19055173
185	0x3d3d0d5a	0.04615531
186	0x3dc858ab	0.09782537
187	0xbd41791e	-0.047234647
188	0x3df53d7d	0.119746186
189	0xbd69c4ea	-0.057072558
190	0x3d9c7262	0.07639004
191	0xbdd48d9a	-0.10378571
192	0x3dbd8818	0.092544734
193	0xbdfb6180	-0.12274456
194	0xbd53ce4a	-0.051710404
195	0xbd3dc391	-0.046329085
196	0xbe37d9a9	-0.17954125
197	0x3d840962	0.06447102
198	0xbc680570	-0.014161453
199	0x3dd45d5c	0.103693694
200	0x3e0e038f	0.13868545
201	0x3d8d54bb	0.06900927
202	0xbd3cc066	-0.046081923
203	0x3e090557	0.13380943
204	0x3dc6af26	0.09701376
205	0x3bdf2d31	0.006810807
206	0x3b2badfa	0.0026196227
207	0x3c48e981	0.012262703
208	0x3c7fa864	0.015604112
209	0x3e04718c	0.1293394
210	0xbd60953a	-0.054829814
211	0xbd88d913	-0.066820286
212	0x3dbf961b	0.09354802
213	0xbd8cd9ee	-0.06877504
214	0xbd845f7b	-0.06463524
215	0x3d7da36b	0.061923426
216	0x3df2388c	0.11827192
217	0x3d8b8f22	0.0681441
218	0xbd76dd83	-0.060269844
219	0xbdbca9ea	-0.09212096
220	0xbc2666a9	-0.010156312
221	0xbdba36c6	-0.090924785
222	0xbc8b1d04	-0.01698161
223	0x3e529277	0.20563684
224	0xbf1f3f1e	-0.62205684
225	0xbe21c0e7	-0.15796243
226	0x3d7e2550	0.062047303
227	0x3c009654	0.007848341
228	0xbc7b90ae	-0.015354319
229	0xbc858b4a	-0.01630177
230	0x3ea337dd	0.31878558
231	0x3ca312b8	0.019906387
232	0x3d96e74e	0.073683366
233	0xbddc4c3c	-0.10756728
234	0x3cc4a6ce	0.02400532
235	0x3d51a20a	0.051179923
236	0xbdd253fb	-0.10269924
237	0x3e0281e7	0.12744866
238	0xbf29960e	-0.6624459
239	0x3d23e0d3	0.04000933
240	0x3e322140	0.17395496
241	0x3d17c62e	0.037054233
242	0xbc96b636	-0.018397432
243	0xbd02f182	-0.0319686
244	0x3c4fb3b9	0.012677127
245	0xbd1dd361	-0.038531665
246	0xbca05322	-0.01957089
247	0xbe040f2e	-0.12896416
248	0xbd764c9a	-0.060131647
249	0xbd9df63a	-0.077129796
250	0xbd394058	-0.04522738
251	0x3baf5f0c	0.0053519066
252	0xbf43fba4	-0.7655585
253	0xbd645098	-0.055740923
254	0xbdb25200	-0.087070465
255	0xbd1b2a79	-0.037882302

gru.weight_hh_l0 f4 [288, 96]
0	0x3d91a3b4	0.07111302
1	0xbd539cc4	-0.051663175
2	0x3d57c6ba	0.052679755
3	0xbd93dcc4	-0.07219842
4	0x3d985bbd	0.07439373
5	0x3da7f101	0.08200265
6	0xbdcb7c67	-0.09935837
7	0x3c7ae7f4	0.015314091
8	0x3d7c246f	0.061558183
9	0xbb63532f	-0.0034687032
10	0xbd825106	-0.0636311
11	0x3ceced39	0.02892171
12	0x3bf4638b	0.0074581555
13	0xbd0f4f2c	-0.034987614
14	0x3c2526cf	0.0100800535
15	0x3c903bfe	0.017606732
16	0x3cead3e4	0.02866549
17	0xbcd87e4f	-0.026427416
18	0xbd7dfca3	-0.06200851
19	0x3da2b517	0.079446964
20	0xbda65e1a	-0.08123417
21	0x3d7fcfaf	0.062453922
22	0xbd93c296	-0.07214849
23	0x3d4a44c3	0.049381983
24	0xbd052ff1	-0.032516424
25	0xbdb6e7d6	-0.08930938
26	0x3cf6474b	0.030063292
27	0xbdc2e7a0	-0.09516835
28	0x3db4f148	0.08835083
29	0xbd5bba1f	-0.053644296
30	0xbdcbc959	-0.099505134
31	0x3da3bd54	0.07995096
32	0x3cb5f930	0.022213548
33	0xbd4e56c3	-0.05037571
34	0x3d6813cd	0.05665951
35	0xbceebeba	-0.02914368
36	0xbd5288d7	-0.051400032
37	0x3d889486	0.066689536
38	0x3d954ae4	0.07289675
39	0x3da009c1	0.078143604
40	0x3c2803c4	0.010254804
41	0x3d8a800a	0.06762703
42	0xbc96811f	-0.018372117
43	0x3c0eedd1	0.008723692
44	0xbc93d29a	-0.018044759
45	0x3b1315f7	0.0022443512
46	0xb9c4353d	-0.000374237
47	0xbc8ce996	-0.017201226
48	0x3cbbf42c	0.022943579
49	0x3dae353c	0.085062474
50	0x3d6c0dbb	0.057630282
51	0x3d8ac7de	0.06776403
52	0x3dbd2a0b	0.09236535
53	0x3ab57aa8	0.0013845759
54	0x3d88922b	0.06668504
55	0xbd9d6705	-0.07685665
56	0xbcec1352	-0.028817806
57	0xbbe32e71	-0.0069330265
58	0xbd0b1c54	-0.033962563
59	0xbd20d5b8	-0.039266318
60	0xbc49342e	-0.012280507
61	0x3ce5f4ff	0.028070925
62	0xbcdc29f8	-0.026875481
63	0x3cadaae7	0.021199657
64	0x3d8b5348	0.06802994
65	0xbd98e1a4	-0.074649125
66	0x3d766373	0.060153436
67	0x3cfa6b76	0.03056882
68	0xbd4490f1	-0.04798979
69	0xbd833eba	-0.064084485
70	0xbd64b295	-0.05583437
71	0xbb9ad2e4	-0.004724847
72	0x3da31710	0.07963383
73	0x3d5c16c8	0.053732663
74	0xbd44e787	-0.048072364
75	0xbdcf1b5e	-0.10112642
76	0x3cba82dc	0.022767477
77	0x3ce47079	0.027885662
78	0x3c83df2d	0.01609763
79	0xbd925686	-0.07145409
80	0x3dc95c97	0.09832113
81	0x3d17447f	0.036930557
82	0x3db16b9a	0.086631015
83	0xbdc6d748	-0.097090304
84	0xbd03e9e8	-0.032205492
85	0xbc4d595e	-0.012533514
86	0x3dab0046	0.083496615
87	0x3b4c3085	0.003115685
88	0xbdbe2aa4	-0.09285477
89	0x3da4a8eb	0.08040031
90	0xbd79b5a6	-0.06096425
91	0x3d4d67c6	0.050147794
92	0xbbf578f2	-0.0074912244
93	0x3dc6d87b	0.09709259
94	0x3dc7229f	0.097234
95	0x3c655b3e	0.013998805
96	0xbd6fa08a	-0.05850271
97	0x3d1db03e	0.038498156
98	0xbd020976	-0.031747304
99	0xbd7d3a73	-0.06182332
100	0x3dac746b	0.084206425
101	0x3ce863c8	0.028367892
102	0x3b9e0a1f	0.004822984
103	0xbc288c6d	-0.010287386
104	0xbdaa86df	-0.08326506
105	0x3dadf6e0	0.08494353
106	0x3c09b775	0.008405556
107	0xbd61a883	-0.055092346
108	0x3d9409fd	0.072284676
109	0xbd5a3ed6	-0.05328258
110	0xbdc11606	-0.09428029
111	0xbd397335	-0.045275886
112	0x3d97cd4f	0.074122064
113	0xbb7b3860	-0.0038333163
114	0x3d907c09	0.07054908
115	0x3d3eda0c	0.046594664
116	0x3d2e6651	0.042578045
117	0x3d3d85fa	0.046270348
118	0xbc952256	-0.01820485
119	0xbc255ce6	-0.0100929495
120	0x3be508ee	0.00698959
121	0x3d99bc77	0.0750665
122	0xbd17a853	-0.03702576
123	0xbcf838a4	-0.030300446
124	0xbcaf7a44	-0.021420605
125	0xbdc7f0c2	-0.09762718
126	0xbdb7d1f2	-0.08975591
127	0xbc449e29	-0.012000599
128	0xbd8b1fe5	-0.06793193
129	0x3d83e650	0.06440413
130	0xbd9643f5	-0.073371805
131	0x3d4dbf10	0.05023104
132	0x3ced84ae	0.02899393
133	0xbdd08681	-0.101819046
134	0xbd99a01a	-0.0750124
135	0xbdb6f564	-0.08933523
136	0x3d4576c2	0.04820896
137	0xbd9592fd	-0.073034264
138	0x3daaf07b	0.08346649
139	0xbceee51a	-0.029161979
140	0x3b66667e	0.0035156305
141	0xbd863002	-0.065521255
142	0xbc8c0137	-0.017090423
143	0x3dcaa4d9	0.098947234
144	0x3c6f40ef	0.014602884
145	0x3cfed162	0.0311057
146	0x3dc41028	0.09573394
147	0x3c912ca8	0.01772149
148	0x3ca98f69	0.020698266
149	0x3d3757f3	0.04476161
150	0xbd9a0339	-0.07520146
151	0xbdaa93ae	-0.08328949
152	0x3d8243bd	0.06360576
153	0x3db446bc	0.08802554
154	0x3cc382c8	0.023866072
155	0xbd968875	-0.07350246
156	0x3b33e9f6	0.0027452684
157	0xbc803406	-0.015649807
158	0x3cb14e3f	0.021643756
159	0x3d75b184	0.059983745
160	0xbbdf4417	-0.006813537
161	0xbc82de97	-0.01597528
162	0x3d80262d	0.062572815
163	0xbdb0964b	-0.08622416
164	0xbd8e5b7c	-0.06951043
165	0xbdbd3dbc	-0.092402905
166	0x3c827e73	0.015929436
167	0xbdac82e4	-0.08423403
168	0x3d8a7890	0.06761277
169	0x3d85a7f1	0.06526173
170	0xbd23c60b	-0.03998379
171	0x3db2373a	0.0870194
172	0x3d655efb	0.055998784
173	0xbd8f985d	-0.07011483
174	0x3d0e6fdf	0.034774657
175	0xbd88815f	-0.066653006
176	0xbdba308f	-0.09091293
177	0xbdbba5be	-0.09162472
178	0xbdb42116	-0.08795373
179	0x3d92f73d	0.07176063
180	0xbc300de6	-0.010745501
181	0x3d8faa3f	0.07014894
182	0xbda28c94	-0.079369694
183	0xbd548c4a	-0.051891603
184	0x3d756a98	0.05991611
185	0x3dcd4ce8	0.10024434
186	0x3d61e7de	0.055152766
187	0x3d901641	0.070354946
188	0x3d923446	0.071388766
189	0xbd95dce4	-0.07317522
190	0xbd4b0247	-0.04956272
191	0x3d2143ba	0.03937123
192	0xbd32f7d5	-0.043693382
193	0x3d5ffe5a	0.054685928
194	0x3b71274f	0.0036797111
195	0xbd0e5a9b	-0.034754377
196	0xbd2a4250	-0.041567147
197	0x3cc2a87f	0.023761986
198	0xbaa1d2ff	-0.0012346207
199	0xbd42d7b0	-0.047568977
200	0xbc57b23d	-0.013165054
201	0xbd0f5c50	-0.035000145
202	0x3c5c60ce	0.013450814
203	0xbda84a3d	-0.08217285
204	0x3c0ab57d	0.008466122
205	0x3d690deb	0.05689804
206	0xbc03de42	-0.008048596
207	0xbcb8a430	-0.022539228
208	0xbd809026	-0.06277494
209	0xbbd1e437	-0.006405379
210	0x3d646bf2	0.055767007
211	0x3d891151	0.06692756
212	0x3d3b5dd5	0.045743782
213	0xbd31979a	-0.04335747
214	0x3dcad8ba	0.099046186
215	0x3dcff69f	0.10154461
216	0xbdc773b0	-0.097388625
217	0x3d73ce92	0.059523173
218	0xbc95e0d6	-0.018295687
219	0x3d2038a5	0.03911652
220	0xbd15877e	-0.03650617
221	0xbdb6eb0b	-0.0893155
222	0xbdbff4e5	-0.09372882
223	0xbd9b4f14	-0.07583442
224	0x3d8729f4	0.06599799
225	0x3bb2e3de	0.005459293
226	0xbdc6e935	-0.097124495
227	0x3dc90f92	0.09817423
228	0x3d8a42f8	0.067510545
229	0x3d3d9621	0.046285752
230	0xbd8b849e	-0.06812404
231	0x3d2b8a71	0.041880075
232	0xbd5cd341	-0.053912405
233	0xbda353a5	-0.07974938
234	0x3d46c8f8	0.048531502
235	0x3ca0dd7d	0.019636864
236	0x3d9632eb	0.073339306
237	0xbce6a6d1	-0.028155716
238	0xbd787af1	-0.06066412
239	0xbd92b463	-0.07163312
240	0x3b98f571	0.004667931
241	0xbda7706c	-0.0817574
242	0x3cbcb454	0.023035206
243	0x3cfc8737	0.030826194
244	0x3d266868	0.040626913
245	0xbda7459c	-0.08167574
246	0x3dc130f9	0.09433169
247	0x3d5fef7a	0.054671742
248	0xbce1d8a3	-0.02756912
249	0x3c99cd5b	0.018774679
250	0x3d6dedbb	0.058088046
251	0xbcb04ebc	-0.021521918
252	0x3d6156a9	0.055014286
253	0x3c29c93a	0.010362918
254	0x3d73a261	0.05948103
255	0xbd8ce76c	-0.06880078

gru.bias_ih_l0 f4 [288]
0	0xbb9022b5	-0.0043986687
1	0x3c83d8ec	0.016094647
2	0x3d53ed6c	0.051740095
3	0x3bac3dd8	0.005256396
4	0xbc83ce07	-0.016089452
5	0x3da2d0f8	0.07950014
6	0xbd6e8c9e	-0.05823957
7	0xbde4119e	-0.11136173
8	0xbe206309	-0.15662779
9	0xbddd456f	-0.10804259
10	0x3dab2d78	0.08358282
11	0x3cb54b58	0.022130653
12	0xbca501b2	-0.02014241
13	0x3c5a4662	0.013322445
14	0x3d9a20b4	0.07525769
15	0x3d556c1f	0.052105065
16	0xbd6418ba	-0.055687644
17	0x3d8bd176	0.06827061
18	0x3e2b81f9	0.167488
19	0x3c408714	0.011750955
20	0x3cd006a2	0.025393788
21	0x3e079ccf	0.13243411
22	0xbd87f9b7	-0.06639426
23	0x3e168f25	0.14703043
24	0x3e0cfa76	0.13767418
25	0xbc7fac68	-0.01560507
26	0x3dffef47	0.124968104
27	0xbd0ea02b	-0.034820717
28	0x3c297796	0.010343453
29	0xbd396f2a	-0.04527203
30	0x3a94a7ec	0.0011341549
31	0x3d0da944	0.034585252
32	0xbb25c385	-0.002529354
33	0xbda67f69	-0.0812977
34	0x3dd0d6f1	0.10197247
35	0xbe0e9818	-0.13925207
36	0xbdd5d6fd	-0.104413964
37	0xbcb0027c	-0.02148556
38	0xbd6a47c0	-0.057197332
39	0x3aceae44	0.0015768488
40	0x3d9410ee	0.072297916
41	0xbd7fe636	-0.062475406
42	0xbd6c2e8a	-0.05766157
43	0x3d866a97	0.06563299
44	0xbd2d024e	-0.042238526
45	0xbd611589	-0.05495218
46	0xbcf1207f	-0.02943444
47	0xbb4eb80f	-0.0031542813
48	0xbda00128	-0.078127205
49	0x3d5476af	0.051870998
50	0xbe016850	-0.12637448
51	0xbc28bf97	-0.010299585
52	0x3ccbaad6	0.024861734
53	0xbdd75dd1	-0.10515941
54	0x3bbddd95	0.005794237
55	0xbd5364ef	-0.05160993
56	0xbd9454ee	-0.072427616
57	0xbd89590a	-0.06706436
58	0x3d3aef00	0.045638084
59	0x3cbe65bd	0.023241872
60	0x3cd88591	0.026430877
61	0xbd507e52	-0.05090172
62	0xbb891e3f	-0.004184514
63	0xbd3dec60	-0.046368003
64	0x3b9cc20a	0.0047838734
65	0x3d6d8514	0.05798824
66	0x3da8c90c	0.08241472
67	0xbdc8c13a	-0.0980248
68	0x3d9975ab	0.074931465
69	0x3c2d9c0c	0.0105962865
70	0xbe1c8e2d	-0.15288611
71	0xbd9a9a2e	-0.07548939
72	0xbc56110a	-0.013065586
73	0x3d94daac	0.07268271
74	0xbb33589b	-0.0027366045
75	0x3d1b0db3	0.03785486
76	0xbd513cab	-0.051083248
77	0x3ce55fc9	0.027999775
78	0x3d0530a7	0.0325171
79	0xbe267aa2	-0.16257718
80	0xbcbfba51	-0.023404272
81	0xbb987545	-0.0046526515
82	0xbdf23094	-0.11825672
83	0xbccc47ff	-0.024936674
84	0x3cf48e58	0.029853031
85	0xbd9bcabd	-0.07607029
86	0xbd389bc2	-0.045070417
87	0x3d27be38	0.04095289
88	0xbd99fe9d	-0.07519267
89	0x3e3dd56a	0.18538442
90	0x3da4084f	0.08009397
91	0xbcaffdee	-0.021483388
92	0x3db2a1c2	0.08722259
93	0xbce4f43e	-0.027948495
94	0x3cb011ee	0.021492925
95	0x3d55047c	0.05200623
96	0x3d3bc375	0.0458407
97	0xbde50b46	-0.11183791
98	0x3df93ba0	0.12169576
99	0x3da6a744	0.08137372
100	0x3e830acd	0.25594178
101	0xbe3bff0e	-0.18359014
102	0xbdf71348	-0.120642245
103	0x3d5cc8dc	0.053902492
104	0x3d728b61	0.059214953
105	0xbe82a844	-0.25519
106	0x3dcdfd4d	0.10058079
107	0xbdb59fee	-0.08868395
108	0x3dff2016	0.12457292
109	0x3d975dc3	0.073909305
110	0xbddeb69c	-0.10874674
111	0x3d2555e6	0.040365122
112	0x3db21731	0.0869583
113	0xbe9ef78a	-0.31048232
114	0xbdf7fdbe	-0.12108944
115	0xbe38cc7b	-0.18046753
116	0x3e26730e	0.16254827
117	0x3dc88556	0.09791057
118	0xbe33e5be	-0.17568108
119	0x3e046f71	0.12933137
120	0xbe00ee8f	-0.12591003
121	0x3cd5bc95	0.0260909
122	0xbd694c9e	-0.056957833
123	0x3d34a9d7	0.044107284
124	0xbe1ee7ad	-0.15518065
125	0xbd87357d	-0.06601999
126	0x3e3d8cd2	0.1851075
127	0xbdda94bb	-0.10672899
128	0x3e1576c2	0.14596084
129	0x3dd26b67	0.102743916
130	0x3db69f20	0.089170694
131	0xbe3a931d	-0.18220182
132	0x3e8e2143	0.27759752
133	0x3dd36900	0.103227615
134	0x3dc09d40	0.09404993
135	0x3d058458	0.032596916
136	0xbdaead51	-0.08529151
137	0x3e672269	0.2257172
138	0xbd8c7bff	-0.06859588
139	0xbe466f33	-0.19378357
140	0x3da6ceb4	0.08144894
141	0x3e2c4664	0.16823727
142	0x3e5e442e	0.21705696
143	0x3dac5023	0.08413722
144	0xbeae98b1	-0.3410087
145	0x3d0398a9	0.03212801
146	0xbe06460c	-0.13112658
147	0xbd8ee95e	-0.06978105
148	0x3c8ccd4f	0.017187743
149	0x3db3be18	0.08776492
150	0x3dbe116f	0.09280669
151	0x3e345c59	0.17613353
152	0x3e14c8d9	0.14529742
153	0x3c4282d0	0.011872008
154	0xbdf740c7	-0.12072902
155	0x3ec743cd	0.38918915
156	0x3d206b7f	0.039165016
157	0xbcb5b5b9	-0.022181379
158	0x3e238421	0.15968372
159	0xbcd31c5e	-0.025770362
160	0x3c13f699	0.009030961
161	0xbdaf3af2	-0.08556165
162	0xbd05094c	-0.03247957
163	0x3e190769	0.14944233
164	0xbb7d455e	-0.0038646082
165	0xbe682f01	-0.2267418
166	0x3e002ec6	0.12517843
167	0x3dcb7c9d	0.099358775
168	0xbd3d73ce	-0.046253018
169	0xbd5b94c7	-0.053608682
170	0x3c91bb8f	0.01778963
171	0x3ea31b85	0.31856933
172	0xbdca74d2	-0.09885563
173	0xbd4f90bb	-0.050675135
174	0x3d2e748c	0.042591617
175	0x3ce4f452	0.027948532
176	0xbda77c4b	-0.08178004
177	0xbd034a09	-0.032053027
178	0x3e88149e	0.2657823
179	0xbd1ea5cb	-0.03873233
180	0x3cc6a5b5	0.024248937
181	0x3dc7f296	0.097630665
182	0xbd903989	-0.07042224
183	0xbe20b950	-0.15695691
184	0x3eb46bdc	0.3523854
185	0x3d8e5e9c	0.06951639
186	0xbdae6354	-0.08515039
187	0xbd977aff	-0.073965065
188	0xbcac4201	-0.021027567
189	0x3d3fa37e	0.046786778
190	0x3cd5512b	0.02603968
191	0xbbb17110	-0.0054150894
192	0x3d9e8a91	0.07741273
193	0x3b503eb8	0.0031775665
194	0xbe361d13	-0.17784528
195	0xbcae25a2	-0.02125818
196	0xbd3c5f47	-0.0459893
197	0xbda98261	-0.08276821
198	0x3daa1ed5	0.08306662
199	0x3d412f8b	0.04716448
200	0x3db9468e	0.0904666
201	0x3e05f8f6	0.13083252
202	0xbd800725	-0.06251363
203	0x3d0727e5	0.03299703
204	0xbd94ed4b	-0.072718225
205	0x3cfd7df1	0.030943843
206	0x3e08773f	0.13326739
207	0xbd4755af	-0.0486657
208	0x3b590c84	0.0033119032
209	0xbc7eed33	-0.015559482
210	0xbdba414d	-0.090944864
211	0xbdc00012	-0.093750134
212	0x3d518d2d	0.051160026
213	0x3e3dc472	0.18531969
214	0xbd908736	-0.070570394
215	0x3d23141a	0.039814092
216	0xbe0d3f01	-0.13793565
217	0xbe2e3859	-0.17013682
218	0xbe170cb2	-0.14750937
219	0xbc419cff	-0.011817216
220	0x3c87535f	0.016519247
221	0xbb5ffac3	-0.0034176565
222	0xbd9639d7	-0.07335251
223	0x3c8ace91	0.016944202
224	0x3b82cb7a	0.0039915415
225	0xbcd8d884	-0.02647043
226	0x3c0e4308	0.008682974
227	0xbd624f56	-0.055251442
228	0xbb01a5a8	-0.0019782577
229	0xbd72bebd	-0.059263933
230	0xbd17cc12	-0.03705985
231	0xbdd50086	-0.104004905
232	0xbde4ab32	-0.111654654
233	0xbd30c9cc	-0.0431612
234	0x3d49422d	0.049135376
235	0x3dd077e4	0.10179117
236	0xbd35612f	-0.044282135
237	0xbd96fb77	-0.07372182
238	0x3d1916fa	0.037375428
239	0x3dde8114	0.108644634
240	0xbd144791	-0.036201064
241	0xbd446faf	-0.047958072
242	0x3c9d7a75	0.019223431
243	0x3de223d3	0.11041989
244	0x3d1d6ed3	0.03843577
245	0x3d310d9c	0.04322587
246	0xbdb94fa7	-0.090483956
247	0x3c8279f1	0.015927287
248	0x3de50247	0.11182075
249	0xbdbacb9e	-0.09120868
250	0xbdb56cfd	-0.088586785
251	0x3d6e7525	0.058217186
252	0x3b23a81d	0.002497203
253	0xbd976af7	-0.07393449
254	0x3d943b85	0.07237915
255	0xbceb1fb6	-0.028701644

gru.bias_hh_l0 f4 [288]
0	0x3d0ac080	0.03387499
1	0xbbd906da	-0.006623131
2	0x3e1ba94b	0.15201299
3	0x3c608761	0.013704152
4	0xbca9a7ce	-0.020709898
5	0xbd94dbb1	-0.07268465
6	0x3be67682	0.00703317
7	0x3d9f6112	0.077821866
8	0xbe06d6dd	-0.13167901
9	0xbd8890d1	-0.066682465
10	0xbcf40ce8	-0.02979131
11	0x3d0b46c0	0.03400302
12	0xbcdd0c8d	-0.026983524
13	0x3cf814e5	0.0302834
14	0x3d36b578	0.044606656
15	0x3c0a205d	0.008430568
16	0x3cd35716	0.025798362
17	0xbd29cd26	-0.04145541
18	0x3d65b087	0.056076553
19	0xbd58c339	-0.052920554
20	0x3d2382c0	0.039919615
21	0x3e86500d	0.2623295
22	0xbc7d7f68	-0.015472271
23	0x3e067a2b	0.13132541
24	0x3ddf301d	0.10897849
25	0xbd91422e	-0.07092701
26	0x3e1db9ca	0.15402904
27	0xbe0a9f55	-0.13537343
28	0x3dc7d617	0.09757631
29	0xbe5a1fdf	-0.2130122
30	0x3a1144cc	0.00055415626
31	0xbdd6330d	-0.10458956
32	0x3e1e7269	0.15473332
33	0xbc21ef31	-0.009883688
34	0x3dddd99b	0.108325206
35	0xbc6d01e4	-0.014465783
36	0x3d713c40	0.05889535
37	0x398c64a9	0.00026777879
38	0xbe169172	-0.1470392
39	0xbd9df84f	-0.07713377
40	0x3e38e8bc	0.18057531
41	0xbdb6518d	-0.08902273
42	0xbe165d92	-0.14684132
43	0xbb883402	-0.0041565904
44	0x3b8b0b61	0.0042433
45	0xbd497bc5	-0.0491903
46	0xbda084a3	-0.078377984
47	0x3da505f5	0.08057777
48	0x3c47f2ed	0.012203914
49	0xbd048cad	-0.03236072
50	0xbdc1f9a6	-0.09471445
51	0x3c945250	0.018105656
52	0x3cb24b6f	0.021764485
53	0xbcc6795e	-0.024227794
54	0x3e142c0f	0.14469932
55	0x3d9a0bff	0.07521819
56	0xbda12deb	-0.07870086
57	0xbd39867f	-0.04529428
58	0xbb812960	-0.0039417
59	0xbdedcf8b	-0.11611851
60	0xbd244647	-0.040106084
61	0xbd8c91d3	-0.06863751
62	0xbdbf56ab	-0.093427025
63	0x3d8c6502	0.06855203
64	0x3d1d5dcc	0.03841953
65	0xbc8abcfe	-0.016935822
66	0x3c379242	0.011204304
67	0x3ba961b0	0.005169116
68	0x3e57bd08	0.21068203
69	0x3d41c076	0.047302686
70	0xbdc62537	-0.09675067
71	0xbbbf0515	-0.0058294632
72	0x3d8ebc23	0.06969478
73	0x3e0182ce	0.12647554
74	0x3dce90b1	0.100861914
75	0x3d866e60	0.06564021
76	0x3d727a2b	0.05919854
77	0x3c50b2a4	0.012737904
78	0xbd61aee4	-0.05509843
79	0xbde70c39	-0.11281628
80	0x3dd046f9	0.10169787
81	0x3c4f9c58	0.012671553
82	0x3d99c918	0.07509059
83	0x3c412e59	0.011790835
84	0xbda4f009	-0.080535956
85	0xbe22bcdf	-0.15892361
86	0xbc91c36a	-0.017793376
87	0x3dd83868	0.10557634
88	0xbdd402a9	-0.1035207
89	0x3e14c2e5	0.14527471
90	0x3dc51aa7	0.09624224
91	0xbbc9adcc	-0.0061547514
92	0x3d91b0ac	0.071137756
93	0x3dd86787	0.10566621
94	0x3ca7a32e	0.020463552
95	0xbd143185	-0.036180038
96	0x3cdf4821	0.027256073
97	0xbe1f3bb1	-0.15550114
98	0x3e355547	0.17708312
99	0x3e419797	0.18905483
100	0x3d97a8f9	0.07405276
101	0xbdfbd2ce	-0.12296067
102	0xbe32430d	-0.1740839
103	0x3dce25be	0.100657925
104	0xbbf4a6c6	-0.00746617
105	0xbe997aa4	-0.2997638
106	0x3daed2fb	0.08536335
107	0xbde9e729	-0.114210434
108	0x3e1f363c	0.15548033
109	0xbd2dec01	-0.0424614
110	0xbdbf1152	-0.093294755
111	0x3dec7949	0.11546571
112	0x3df6e71c	0.12055799
113	0xbe80c4bc	-0.25150096
114	0xbe22bd67	-0.15892564
115	0xbbcf145d	-0.006319566
116	0x3e11b2f7	0.14228426
117	0x3e13fd0b	0.14451997
118	0xbe5dbc89	-0.21653952
119	0x3e28f057	0.16497932
120	0xbdaf3418	-0.08554858
121	0xbd48eea5	-0.049055714
122	0xbe40ebfc	-0.18840021
123	0xbc067dcf	-0.008208706
124	0xbe201402	-0.15632632
125	0xbe141a78	-0.14463222
126	0x3e0b48ab	0.1360194
127	0xbdf553d4	-0.119788796
128	0x3e01ca7c	0.12674898
129	0x3ceb52ed	0.028726066
130	0xbcdb829d	-0.02679568
131	0xbe95b836	-0.29242104
132	0x3e93724e	0.28798145
133	0x3da9b351	0.08286155
134	0x3c5f5aa5	0.013632451
135	0x3da6f48d	0.08152113
136	0x3d6f92f2	0.058489747
137	0x3e283064	0.1642471
138	0xbd7ca327	-0.06167903
139	0xbdda3194	-0.106539875
140	0x3cf4a75b	0.029864958
141	0x3d1baa79	0.038004372
142	0x3dff200f	0.124572866
143	0xbcaab43c	-0.020837896
144	0xbe924f4d	-0.28576127
145	0xbd8e59cc	-0.06950721
146	0xbdac70eb	-0.08419975
147	0xbdbd2337	-0.09235232
148	0xbd9c8f72	-0.076445475
149	0x3dbafe3c	0.091305226
150	0xbd171663	-0.036886584
151	0x3d012883	0.031532776
152	0x3d121de6	0.035673045
153	0x3dccd7e3	0.100021146
154	0x3d16a7da	0.03678117
155	0x3ebe36d1	0.37151197
156	0xbdd8d20b	-0.105869375
157	0x3c7de10b	0.015495549
158	0x3bc72085	0.0060768747
159	0x3deecec7	0.116605334
160	0xbdd62747	-0.1045671
161	0xbe17bbfb	-0.14817803
162	0xbd01e9f9	-0.031717274
163	0x3da5d74b	0.080977045
164	0x3d16beb6	0.03680297
165	0xbe81e62e	-0.25370926
166	0x3dc3df82	0.09564115
167	0xbc0d44a9	-0.008622327
168	0x3b0f8c1d	0.0021903582
169	0xbd010306	-0.031497024
170	0xbda3a18c	-0.07989797
171	0x3e9fcff5	0.31213346
172	0xbe23c9ea	-0.15994993
173	0x3dcd702b	0.1003116
174	0x3de7c4c4	0.11316827
175	0x3e1c3441	0.15254308
176	0xbe0ad9a4	-0.13559586
177	0x3bd5f600	0.0065295696
178	0x3e8959be	0.2682628
179	0xbd9ab54e	-0.075541124
180	0xbd5a1a65	-0.053247828
181	0x3d4879f3	0.048944425
182	0xbcdf3e55	-0.027251402
183	0xbd0d7530	-0.034535587
184	0x3eddb8e9	0.43305138
185	0xbcf7b15a	-0.030235935
186	0xbd727843	-0.05919672
187	0xbd546b10	-0.051859915
188	0xbd440699	-0.047857855
189	0x3ca780b6	0.020447116
190	0xbdfa68a5	-0.122269906
191	0x3cdd6356	0.027024906
192	0xbda2464a	-0.07923563
193	0xbd35ea52	-0.04441292
194	0xbdab745f	-0.083718054
195	0xbc482a21	-0.012217076
196	0x3d51715d	0.051133502
197	0x3de0be3a	0.10973783
198	0x3db3e6d6	0.08784263
199	0xbdd92e6d	-0.10604558
200	0x3a496fed	0.000768422
201	0x3d6f26e0	0.058386683
202	0x3dd88b34	0.10573426
203	0x3dcb33a3	0.09921958
204	0xbce373b3	-0.02776513
205	0xbd55e056	-0.052215897
206	0x3e0cee0e	0.13762686
207	0xbd6f8e9e	-0.05848562
208	0x3dafc64b	0.08582743
209	0xbde78e3a	-0.113064244
210	0xbe58cc6a	-0.21171728
211	0xbde70963	-0.11281087
212	0x3d07a9af	0.033120807
213	0x3e22afb5	0.1588734
214	0x3da241f2	0.07922734
215	0x3e25a458	0.16175973
216	0xbe10ebad	-0.14152403
217	0xbd9edd04	-0.07756999
218	0xbe90f493	-0.28311595
219	0x3c38de43	0.01128346
220	0xbdb35e23	-0.087581895
221	0x3bab464e	0.005226887
222	0xbd489262	-0.048967727
223	0xbd941b22	-0.07231738
224	0xbdcb2524	-0.099191934
225	0x3caa827e	0.020814177
226	0xbe3b7b6e	-0.18308803
227	0x3d43c243	0.047792684
228	0xbd97b1e8	-0.0740698
229	0x3da18b05	0.07887844
230	0xbca459a2	-0.020062272
231	0xbd89130c	-0.06693086
232	0xbe288acf	-0.16459201
233	0x3d930fd5	0.07180754
234	0xbc829e3c	-0.015944593
235	0xbdb4b916	-0.08824365
236	0x3d828f9f	0.0637505
237	0x3d995a75	0.074879564
238	0x3d190e05	0.037366886
239	0x3dca40d6	0.09875648
240	0xbe297b83	-0.16551022
241	0x3e0e982a	0.13925233
242	0xbd051a2f	-0.032495674
243	0x3d8bb5eb	0.068218075
244	0x3cadc8d5	0.021213928
245	0x3daa63c4	0.0831981
246	0xbe0d0b06	-0.13773736
247	0x3d8073d8	0.062720954
248	0x3d68275d	0.056678165
249	0x3d267ab1	0.04064435
250	0xbd9d2987	-0.07673936
251	0x3d616bfc	0.055034623
252	0xbc40ccb5	-0.011767556
253	0x3c12d01b	0.008960749
254	0x3c8e2b2d	0.017354572
255	0x3e0f7132	0.14008024

gru.weight_ih_l1 f4 [288, 96]
0	0xbda813aa	-0.082068756
1	0xbd5f4223	-0.054506432
2	0x3dac6539	0.08417744
3	0xbe2895a1	-0.16463329
4	0x3c17b03c	0.009258326
5	0xbceb708a	-0.028740186
6	0xbdece18d	-0.11566458
7	0x3c259c8c	0.010108124
8	0xbcecd209	-0.028908746
9	0xbd2bdfd7	-0.041961517
10	0x3e08e02a	0.13366762
11	0x3dbc8478	0.09204954
12	0x3cd90f63	0.026496595
13	0x3e1eb5db	0.1549906
14	0x3d8b0a7b	0.06789108
15	0xbdf8b2d1	-0.121434815
16	0x3b0432bb	0.002017184
17	0x3e3201e1	0.17383529
18	0x3d59fdab	0.053220432
19	0xbdf7e7c3	-0.12104752
20	0x3d606e8b	0.054792922
21	0x3dd115a3	0.10209205
22	0x3cacb4fe	0.021082398
23	0xbe005808	-0.12533581
24	0xbacb7439	-0.0015522308
25	0x3dc97f9d	0.098387934
26	0xbdc3b9ae	-0.095569
27	0x3d455efd	0.04818629
28	0x3e0c0c76	0.13676628
29	0xbd7c2a48	-0.06156376
30	0x3c4db272	0.012554752
31	0x3d884384	0.066535026
32	0xbd39cf44	-0.04536368
33	0x3d51bab6	0.051203452
34	0xbe1c3be4	-0.15257221
35	0xbd00f2ad	-0.031481434
36	0x3ce17759	0.02752273
37	0x3e04a26c	0.12952584
38	0x3d0e35f9	0.03471944
39	0x3d51281a	0.051063634
40	0x3c390e9b	0.011294986
41	0x3d7f0cb5	0.062267978
42	0x3e15cb7c	0.14628404
43	0x3b73ab60	0.0037181005
44	0xbd31ac44	-0.043377176
45	0xbd937323	-0.07199695
46	0x3e5a740c	0.21333331
47	0x3da60617	0.0810663
48	0xbcbeddc3	-0.023299104
49	0x3cee815e	0.029114421
50	0x3e08be74	0.13353902
51	0x3db7a5b0	0.08967149
52	0x3dfbe4f1	0.122995265
53	0xbceb555f	-0.028727232
54	0xbd8d1e14	-0.068905026
55	0xbdb523c7	-0.088447146
56	0xbd3381ed	-0.04382508
57	0xbe35f9b4	-0.17771035
58	0xbdb11b6a	-0.08647807
59	0xbe19bc1c	-0.15013164
60	0xbd48452d	-0.048894096
61	0x3d9df2e0	0.0771234
62	0x3d22df34	0.039763644
63	0xbe1417a8	-0.14462149
64	0x3cb904f4	0.02258537
65	0xbdab5d3b	-0.08367392
66	0x3e05b74e	0.13058206
67	0x3df1b1b3	0.118014716
68	0xbe0c38b4	-0.13693506
69	0xbcdc4799	-0.02688961
70	0x3c81c217	0.01583962
71	0xbbbb27d8	-0.005711537
72	0x3d92fd5f	0.07177233
73	0x3dbd67e9	0.09248335
74	0x3d0a5d46	0.03378036
75	0xbd6057a0	-0.054771066
76	0xbd29250d	-0.0412951
77	0x3e33826c	0.17530221
78	0x3b147cba	0.002265735
79	0x3d623b0a	0.055232085
80	0x3c15aeac	0.009135883
81	0x3db71eca	0.089414194
82	0x3c92fd96	0.017943185
83	0x3c487a44	0.012236182
84	0x3d1eabb9	0.038737986
85	0x3d52a2be	0.051424734
86	0x3d8e0cbe	0.06936024
87	0x3dcb34ad	0.099221565
88	0xbdd70d5e	-0.105005965
89	0x3e291d6e	0.16515133
90	0x3d39247e	0.045200817
91	0x3dceaccf	0.100915544
92	0x3e480d40	0.19536304
93	0xbd3a691f	-0.045510408
94	0xbd889e70	-0.066708446
95	0x3e5264cd	0.20546265
96	0x3d254f79	0.040358994
97	0xbe09be94	-0.13451606
98	0x3ae9cffa	0.0017838471
99	0x3da5fcf9	0.08104891
100	0xbcf114b5	-0.02942882
101	0x3cab3ff0	0.020904511
102	0xbcba855d	-0.02276867
103	0x3d1692ec	0.03676121
104	0xbc109b68	-0.008826114
105	0xbdc685a2	-0.09693457
106	0x3d33ae74	0.043867543
107	0x3d8942f9	0.06702227
108	0x3c03f71a	0.008054519
109	0x3de2d55f	0.110758536
110	0x3d79cdf6	0.060987435
111	0x3da9150d	0.08255968
112	0x3d28e9f9	0.04123876
113	0x3e062138	0.1309861
114	0xbd773ae0	-0.060358882
115	0x3c4add9a	0.0123819355
116	0xbdc83e01	-0.09777451
117	0x3e385c4d	0.1800396
118	0xbe2f85a6	-0.17140827
119	0xbdbad1c0	-0.09122038
120	0xbce358bc	-0.027752273
121	0xbca22c13	-0.019796407
122	0x3c05a3b0	0.008156702
123	0x3c028eb1	0.007968591
124	0x3d0776a9	0.033072148
125	0xbcd37722	-0.025813643
126	0xbc433e72	-0.011916744
127	0x3e16b126	0.14716014
128	0xbdaf3686	-0.085553214
129	0xbd9a2964	-0.07527426
130	0xbd49fede	-0.049315326
131	0x3daadbbd	0.08342693
132	0xbcb01395	-0.021493712
133	0x3cb5f6ce	0.022212412
134	0xbd97038c	-0.073737234
135	0x3d1602a0	0.036623597
136	0x3dbafb24	0.091299325
137	0x3d320984	0.043466106
138	0xb9d512fb	-0.00040640667
139	0xbdaa2851	-0.08308471
140	0xbd45c824	-0.048286572
141	0xbe09ec55	-0.1346906
142	0x3e218a88	0.15775502
143	0xbce260b9	-0.027634012
144	0xbb0edca0	-0.0021798983
145	0xbda0ab66	-0.07845192
146	0xbde35ceb	-0.11101707
147	0xbd824e29	-0.06362564
148	0x3d81e240	0.06341982
149	0x3dfeac1a	0.124351695
150	0xbdc12db4	-0.09432545
151	0x3d5c14de	0.053730838
152	0xbe5c3244	-0.2150355
153	0xbd7970e8	-0.06089869
154	0xbc150f63	-0.009097907
155	0xbda69a3f	-0.08134889
156	0xbc808250	-0.015687138
157	0x3d3b7ba3	0.045772206
158	0xbd6b197f	-0.05739736
159	0xbd70dcdc	-0.058804378
160	0x3d273449	0.040821347
161	0xbd1ac787	-0.03778794
162	0x3da08f20	0.07839799
163	0x3db2a872	0.08723535
164	0xbe0e328b	-0.13886468
165	0x3d3033ef	0.043018278
166	0xbd86977f	-0.06571864
167	0x3b0998a8	0.0020995531
168	0x3c4d8282	0.0125433225
169	0xbd9b8745	-0.0759416
170	0x3e1a48dc	0.15066856
171	0xbdccd9f9	-0.100025125
172	0x3d7c7d21	0.06164277
173	0xbd255f38	-0.04037401
174	0x3ce932f7	0.028466685
175	0x3d5e5c20	0.054287076
176	0xbca4176d	-0.020030702
177	0xbdda5a68	-0.10661775
178	0x3e30fe90	0.17284608
179	0x3dbc35de	0.09189962
180	0xbd52d817	-0.05147561
181	0x3d179cec	0.037014887
182	0x3ca513f1	0.02015111
183	0x3e17521a	0.14777413
184	0xbe39e601	-0.18154146
185	0x3dd6db65	0.10491065
186	0xbcd7da09	-0.026349084
187	0xbd45f311	-0.04832751
188	0x3d6cb5b8	0.057790488
189	0xbdf01bae	-0.117240295
190	0xbda132f8	-0.0787105
191	0xb618d579	-2.2774022e-06
192	0xbd47f417	-0.048816767
193	0x3d5b4e12	0.05354125
194	0xbe2cd325	-0.1687742
195	0xbd3dcf9c	-0.04634057
196	0x3e1a9e45	0.15099438
197	0xbe43f3f7	-0.19136034
198	0x3dedcf6d	0.11611829
199	0xbdc15f63	-0.09442022
200	0x3cd65eb0	0.026168197
201	0x3d8b3e70	0.067990184
202	0xbe0f785c	-0.14010757
203	0xbcbbc687	-0.022921814
204	0x3ca7b137	0.020470245
205	0x3dbfd97d	0.093676545
206	0xbcf91c35	-0.030408958
207	0xbd665581	-0.056233887
208	0xbd867130	-0.065645576
209	0x3d43b5a4	0.047780648
210	0x3d00e722	0.031470425
211	0x3d0732d1	0.033007447
212	0xbb93960b	-0.0045039705
213	0xbdae3275	-0.08505718
214	0xbd1be963	-0.03806437
215	0x3d8de719	0.06928844
216	0xbdae29cf	-0.08504068
217	0x3d71a3c6	0.058994077
218	0xbdcd4485	-0.10022835
219	0xbd5304b0	-0.051518142
220	0x3e4940b6	0.19653592
221	0xbdd21dc5	-0.10259584
222	0xbd935993	-0.07194819
223	0x3e682f98	0.22674406
224	0xbd331201	-0.04371834
225	0x3e50137e	0.20319936
226	0xbe4553ce	-0.1927025
227	0xbe75bd0a	-0.23997894
228	0xbdd38494	-0.10328022
229	0x3d94e0dd	0.07269452
230	0xbe335239	-0.17511834
231	0xba2e7d12	-0.000665621
232	0xbd0a3c5d	-0.033748973
233	0x3d921ad7	0.071340255
234	0xbc6d0e1e	-0.014468698
235	0x3d68fe52	0.056883164
236	0xbe142b77	-0.14469706
237	0x3db4a632	0.08820762
238	0x3e7556c9	0.23958887
239	0x3e1794cc	0.14802855
240	0x3cec1fe6	0.028823804
241	0xbe1f8cf1	-0.15581109
242	0x3c21e046	0.009880131
243	0xbd9cb211	-0.07651151
244	0x3e0bd48e	0.13655302
245	0x3e81da0d	0.25361672
246	0x3da9813b	0.08276602
247	0x3d64acdd	0.055828918
248	0xbbb94ad3	-0.0056546717
249	0xbc839cb1	-0.016065927
250	0x3d3bb724	0.045828953
251	0xbd0618a5	-0.032738347
252	0x3c7cce93	0.0154301105
253	0xbc5c2c9a	-0.013438368
254	0x3dbc8f56	0.09207027
255	0xbc084f4e	-0.008319689

gru.weight_hh_l1 f4 [288, 96]
0	0xbdd03c2c	-0.10167727
1	0x3d1cddcb	0.038297456
2	0xbdae8d8d	-0.085230924
3	0x3caabf60	0.020843208
4	0xbd842a53	-0.06453385
5	0x3cdf6cd0	0.027273566
6	0xbc29cee4	-0.010364268
7	0xbdba79d9	-0.09105272
8	0x3badcfcd	0.005304313
9	0x3ca46151	0.020065935
10	0xb9b91a33	-0.0003530547
11	0xbd8b1ca3	-0.067925714
12	0x3d63de86	0.055632137
13	0x3dadd8d0	0.08488619
14	0xbdc75348	-0.097326815
15	0xbdc868f9	-0.09785647
16	0xbd809c19	-0.06279773
17	0x3d3b22eb	0.045687597
18	0x3d82cc1d	0.06386588
19	0x3baa289b	0.005192829
20	0xbdcd0f9a	-0.100127414
21	0xbcd13469	-0.025537686
22	0xbc95422e	-0.018220033
23	0xbc8a751d	-0.016901547
24	0x3d4db06e	0.050217085
25	0x3d9f2541	0.077707775
26	0xbdb61d27	-0.08892279
27	0xbc3cb271	-0.011517153
28	0xbae2a29e	-0.0017290895
29	0xbd9cc345	-0.07654432
30	0x3dcbe4a0	0.09955716
31	0xbd5f922b	-0.054582756
32	0xbce257c1	-0.027629735
33	0x3dc0ddd0	0.094173074
34	0x3ba06ecd	0.004896021
35	0x3c8a9d46	0.016920697
36	0x3d8375b2	0.06418933
37	0x3dd0efa1	0.102019556
38	0x3c853ae7	0.016263438
39	0xbc9c344e	-0.01906791
40	0x3d86279f	0.06550526
41	0xbaec2225	-0.0018015547
42	0xbd8ad598	-0.06779021
43	0x3c2f709f	0.010708003
44	0x3d974df3	0.073879145
45	0x3db44b30	0.088034034
46	0x3db5a112	0.08868612
47	0xbc9215bd	-0.017832631
48	0x3da297a7	0.07939082
49	0xbd8f7372	-0.07004441
50	0x3bd7f07f	0.0065899487
51	0x3d9a17f1	0.07524098
52	0xbd32b0e9	-0.043625746
53	0x3cd9434a	0.026521344
54	0xbdb413a9	-0.087928124
55	0x3d137963	0.036004435
56	0x3d189d05	0.03725912
57	0xbcf3b0c1	-0.029747369
58	0xbda00df5	-0.07815162
59	0x3b6548b7	0.0034985968
60	0x3d7645ea	0.06012527
61	0x3d278788	0.040900737
62	0xbd58e58f	-0.0529533
63	0x3d582394	0.052768305
64	0x3bc4154b	0.0059839836
65	0x3d9e6bac	0.077353805
66	0xbcdf1e74	-0.0272362
67	0x3dc6ef46	0.097136065
68	0x3d056760	0.03256929
69	0xbc8a94a6	-0.016916584
70	0xbdbfa7ef	-0.09358203
71	0x3d8a15a9	0.067424126
72	0xbcac33ee	-0.021020856
73	0xbd6c36a2	-0.05766929
74	0x3dc6c2ef	0.097051494
75	0x3da29b8e	0.07939826
76	0x3c91cbb1	0.017797323
77	0xbda18442	-0.07886554
78	0x3a2c915e	0.00065829407
79	0x3da164cc	0.078805536
80	0xbd47dbfd	-0.04879378
81	0xbda3445a	-0.079720214
82	0xbd722cde	-0.05912482
83	0xbd054dc5	-0.03254487
84	0xbc56bdb2	-0.01310675
85	0x3d10ecde	0.035382144
86	0xbda7fce0	-0.08202529
87	0xbd563625	-0.05229773
88	0xbd336e8e	-0.043806605
89	0xbd4e8ee6	-0.050429247
90	0xbd2b463a	-0.04181502
91	0x3da50497	0.08057516
92	0x3d2d4b0b	0.042307895
93	0x3d3a2a1a	0.045450307
94	0x3db933b0	0.09043062
95	0xbd2e85eb	-0.042608183
96	0x3d690908	0.05689338
97	0x3d7279fa	0.059198357
98	0xbdb4d103	-0.08828928
99	0x3dc78078	0.097413
100	0x3dbd2253	0.092350625
101	0xbd5ee4b0	-0.054417312
102	0xbc1bfb6e	-0.009520395
103	0xbd00cda4	-0.031446114
104	0xbc8ec4f1	-0.017427893
105	0x3c9b6dff	0.018973349
106	0xbd91fb6d	-0.07128034
107	0x3d77046a	0.060306944
108	0x3da163e5	0.078803815
109	0x3cf5a8f8	0.029987797
110	0x3dbcb7d8	0.09214753
111	0x3c45214f	0.012031867
112	0xbd47c99a	-0.048776247
113	0xbd2cc088	-0.0421758
114	0x3d9f0c65	0.07766036
115	0x3dc5273a	0.096266225
116	0xbdc9c26a	-0.09851535
117	0x3dc90428	0.09815246
118	0xbbad12c8	-0.00528178
119	0xbd33a804	-0.043861404
120	0xbd99ca7f	-0.07509326
121	0xbcff59f2	-0.031170819
122	0xbc6d4441	-0.014481605
123	0xbd9b72c8	-0.07590252
124	0xb74d5951	-1.2239748e-05
125	0x3d9c8bb4	0.07643834
126	0xbcc69d08	-0.0242448
127	0x3c45230b	0.012032281
128	0xbd6d81ea	-0.057985224
129	0x3d3b3731	0.04570693
130	0xbcadfe98	-0.021239564
131	0xbc8966e1	-0.01677269
132	0xbd90894b	-0.070574366
133	0xbd805d6d	-0.062678196
134	0x3c2a87a0	0.010408312
135	0x3d3ed7a3	0.046592366
136	0xbdb2a163	-0.08722188
137	0xbacad583	-0.0015475008
138	0x3baae44c	0.0052152034
139	0xbd80561d	-0.06266425
140	0x3d372fa0	0.044723153
141	0x3da5332b	0.080664
142	0xbdb19999	-0.086718746
143	0xbcad40bc	-0.021149032
144	0xbdb23827	-0.087021165
145	0xbd96c6c0	-0.07362127
146	0x3d9e011c	0.07715055
147	0xbd063dec	-0.032773897
148	0x3d68b71d	0.056815255
149	0x3d710d6c	0.05885069
150	0x3ae0904d	0.0017132849
151	0x3dcbf412	0.09958662
152	0x3dcb16ef	0.099164836
153	0xbd93cd3a	-0.07216878
154	0x3d2b2d83	0.04179145
155	0x3d5f3312	0.054492064
156	0xbdc718c8	-0.097215235
157	0xbd5fe883	-0.0546651
158	0x3d789380	0.060687542
159	0x3db5b406	0.08872227
160	0xbdcce910	-0.10005391
161	0xbc2c1cc2	-0.010504903
162	0x3dcd0cfa	0.10012241
163	0xbcd26185	-0.025681267
164	0x3d8fafed	0.07015977
165	0xbcfe49ab	-0.031040987
166	0xbc0b0be2	-0.00848672
167	0x3c0a9fda	0.008460963
168	0xbdd072e7	-0.10178166
169	0x3d15599d	0.036462415
170	0xbda5d3f1	-0.08097065
171	0xbcea35a4	-0.028590031
172	0x3d8de5b6	0.069285795
173	0xbc96c9e5	-0.018406818
174	0xbca4dea6	-0.020125698
175	0xbcb635b0	-0.022242397
176	0xbc7cc4f0	-0.015427813
177	0xbca6c844	-0.020359166
178	0xbc300b73	-0.010744917
179	0xbcc9c5b2	-0.024630401
180	0xbc4bf356	-0.0124481525
181	0x3dc77560	0.097391844
182	0xbd3914ee	-0.045185976
183	0x3bf8ce98	0.0075929873
184	0x3d864f3c	0.065580815
185	0xbd62de8a	-0.05538801
186	0xbd1c1d64	-0.038113967
187	0xbd4fc810	-0.050727904
188	0x3da336a3	0.079694055
189	0xbd835aee	-0.06413828
190	0xbc46dc5c	-0.012137499
191	0xbcdc37d3	-0.026882088
192	0xbb1284d5	-0.0022357006
193	0x3dc45208	0.09585959
194	0xbbaaea03	-0.0052158847
195	0x3ca69a15	0.020337144
196	0x3b10177b	0.0021986652
197	0x3cf0974d	0.02936902
198	0x3dbb9374	0.09158984
199	0x3d7cbdc1	0.0617044
200	0x3d9d8da0	0.076930285
201	0xbdc9176c	-0.098189205
202	0x3ce054cd	0.027384186
203	0x3c8adef4	0.016952015
204	0xbc3de840	-0.011591017
205	0x3d6fe938	0.058572024
206	0xbdb19f42	-0.08672954
207	0x3c85f76f	0.016353337
208	0xbbfdcb64	-0.0077451933
209	0x3d1b119e	0.037858598
210	0x3c8a2fd0	0.016868502
211	0x3d1d54bf	0.0384109
212	0x3c8fa0e9	0.017532783
213	0xbdc5fbba	-0.09667154
214	0xbcc41065	-0.023933599
215	0x3d7387ee	0.059455805
216	0xbd2841c5	-0.041078348
217	0x3d242bf7	0.04008099
218	0xbd8b1a1a	-0.06792088
219	0x3ab3d2e5	0.0013719468
220	0x3d29fa7c	0.041498646
221	0x3c0e79fa	0.008696074
222	0xbd66fcc4	-0.0563934
223	0x3cdebabd	0.027188653
224	0xbd7c2e90	-0.061567843
225	0xbd58bc74	-0.052914098
226	0x3d4338ee	0.047661714
227	0xbd84f4a1	-0.06491972
228	0xbd80894e	-0.06276189
229	0x3b0f50de	0.002186827
230	0x3d7f0c43	0.062267553
231	0x3dbb3b8a	0.091422155
232	0x3d6fde43	0.058561575
233	0xbd457439	-0.04820654
234	0xbbdc23d2	-0.0067181373
235	0x3d0209b7	0.031747546
236	0xbdc24754	-0.09486261
237	0xbcf3e797	-0.029773517
238	0x3dcbe950	0.0995661
239	0x3bbccae2	0.00576149
240	0x3d744bda	0.05964265
241	0xbdc77a2b	-0.097400986
242	0xbd219d36	-0.03945657
243	0xbd6811af	-0.05665749
244	0xbd16a6ae	-0.036780052
245	0x3dcba92b	0.099443756
246	0x3db3f77e	0.0878744
247	0x3d46effe	0.048568718
248	0x3d877fc9	0.0661617
249	0xbca21e0a	-0.019789714
250	0x3d3e0190	0.04638821
251	0xbda5170b	-0.08061036
252	0xbd75db66	-0.060023688
253	0xbdadc9e0	-0.0848577
254	0x3c0c934b	0.008580039
255	0x3d092329	0.033480797

gru.bias_ih_l1 f4 [288]
0	0xbd9f6845	-0.0778356
1	0x3ad51c75	0.0016259091
2	0xbd4a1421	-0.049335603
3	0x3c0b0ad6	0.00848647
4	0x3cc70b0d	0.024297262
5	0x3d5786de	0.052618854
6	0xbe24e34c	-0.16102332
7	0xbdecc76a	-0.11561473
8	0xbd597514	-0.05309017
9	0x3c5e430b	0.013565789
10	0x3cea65d2	0.028613005
11	0xbbee4673	-0.007271582
12	0xbd8754f2	-0.06607999
13	0xbdbbf67c	-0.091778725
14	0xbd1623db	-0.03665529
15	0xbe2624d8	-0.16224992
16	0xbc2833b7	-0.010266236
17	0x3cde3462	0.027124587
18	0x3c78cac2	0.01518506
19	0xbcc9ca59	-0.02463262
20	0x3d19a479	0.03751037
21	0x3d0b9809	0.03408054
22	0xbd7ec348	-0.062197953
23	0xbe2dad65	-0.16960676
24	0x3cda70dc	0.026665144
25	0x3d97b1f0	0.07406986
26	0xbe07f68d	-0.13277645
27	0xbd5c299c	-0.05375062
28	0x3d884c39	0.06655163
29	0xbbec17a9	-0.007204969
30	0x3d526637	0.05136701
31	0xbdca8f7a	-0.09890647
32	0x3c568e9c	0.013095524
33	0xbdab3673	-0.08359995
34	0x3ddc675a	0.107619
35	0xbe031f21	-0.12804843
36	0x3d8991b6	0.06717245
37	0x3d4f4d6e	0.050610952
38	0x3ce9809c	0.028503709
39	0xbda12653	-0.07868638
40	0xbbbf7ff4	-0.0058441106
41	0xbe035724	-0.1282621
42	0x3db6e2ca	0.08929975
43	0x3c9fadf8	0.019492134
44	0x3cefadc9	0.029257672
45	0xbdde4037	-0.10852092
46	0x3c0f2d06	0.008738762
47	0xbdc53520	-0.096292734
48	0xbdee1855	-0.11625735
49	0xbe03b955	-0.12863667
50	0x3d57f699	0.05272541
51	0xbdc08930	-0.094011664
52	0x3dbc3b8b	0.091910444
53	0xbdc2bb7a	-0.095084146
54	0xbd58a81e	-0.052894704
55	0x3c239d0d	0.009986174
56	0x3d3b805e	0.045776717
57	0xbdde67cb	-0.10859641
58	0xbddba3f2	-0.107246295
59	0xbdfbd325	-0.12296132
60	0x3d8048d9	0.062638946
61	0xbd72d29b	-0.05928288
62	0x3c420ade	0.011843411
63	0xbcf67e35	-0.030089477
64	0x3c285c7a	0.010275954
65	0xbd82c1fc	-0.06384656
66	0xbd9b5278	-0.07584089
67	0x3dcb76aa	0.09934743
68	0xbd906520	-0.07050538
69	0xbc00674d	-0.007837129
70	0xbdb28799	-0.087172695
71	0x3d33c4e8	0.043888956
72	0x3df2820c	0.11841211
73	0x3dbe465e	0.09290765
74	0xbda5957f	-0.08085155
75	0xbd940b65	-0.07228736
76	0xbdf5737c	-0.119849175
77	0xbd51bf9f	-0.051208135
78	0xbdcb6085	-0.09930519
79	0xbd84a1c3	-0.06476166
80	0x3c87eff8	0.016593918
81	0xbc97d079	-0.018532025
82	0xbe14c35c	-0.14527649
83	0xbce39253	-0.027779734
84	0xbd806373	-0.062689684
85	0xbd6fc531	-0.058537666
86	0xbd832031	-0.064026244
87	0xbc66c574	-0.014085162
88	0xbd9b41c7	-0.075809054
89	0x3b553677	0.0032533684
90	0xbe0d67ec	-0.13809174
91	0xb9fbc7ff	-0.0004802346
92	0x3d6d4ea2	0.05793632
93	0xbc783443	-0.015149179
94	0xbdde92d8	-0.10867852
95	0xbd7f58c0	-0.062340498
96	0xbc4eb0dd	-0.01261541
97	0x3d838bc9	0.06423146
98	0x3db1062b	0.086437546
99	0xbd844adb	-0.0645959
100	0x3d48b516	0.049000822
101	0x3cc14ebf	0.02359712
102	0x3e2d5855	0.16928227
103	0xbc36de06	-0.011161333
104	0x3da907d2	0.08253445
105	0xbc6fe67f	-0.014642357
106	0xbd79868c	-0.06091933
107	0xbbc68a8c	-0.0060589965
108	0x3d43b3cb	0.047778886
109	0x3db4f204	0.08835223
110	0x3e17d125	0.14825876
111	0x3e00e040	0.12585545
112	0x3d8800b6	0.066407606
113	0x3c71bdd6	0.014754733
114	0x3d95699d	0.07295535
115	0x3d94058c	0.072276205
116	0xbe44befe	-0.19213483
117	0x3e7bac0f	0.24577354
118	0x3e126670	0.1429689
119	0x3c01fb45	0.0079334425
120	0xbd8a65fb	-0.067577325
121	0x3d81b65c	0.063336104
122	0xbcfce469	-0.030870633
123	0x3ddf24a7	0.10895663
124	0xbcbc8781	-0.023013832
125	0xbd3db3ff	-0.046314236
126	0x3d2a298c	0.04154353
127	0xbd1bc986	-0.038033985
128	0x3e0adfaa	0.13561884
129	0xbc5e3e8e	-0.013564719
130	0x3dd29cb3	0.10283794
131	0x3cd819f1	0.026379557
132	0xbd6b393b	-0.057427626
133	0x3d0cd87e	0.03438615
134	0x3df19f34	0.11797944
135	0x3ddd7844	0.108139545
136	0xbd4fe825	-0.0507585
137	0x3df39492	0.11893572
138	0x3e679e00	0.22618866
139	0xbe596b74	-0.21232396
140	0xbd878093	-0.066163205
141	0xbdbe6f59	-0.09298582
142	0xbc8ba92b	-0.017048439
143	0x3d2e909b	0.042618375
144	0x3c248421	0.010041268
145	0x3d93f6fb	0.07224842
146	0xbbbef941	-0.005828053
147	0x3e311936	0.17294773
148	0xbd0d5c5c	-0.03451191
149	0x3c408da8	0.0117525235
150	0x3cd3bef7	0.025847895
151	0xbd701a9d	-0.05861913
152	0x3ce1397f	0.027493237
153	0x3debebe4	0.11519602
154	0x3db8dcb0	0.09026468
155	0xbd70fd5d	-0.058835376
156	0x3d3361c9	0.043794427
157	0xbc514667	-0.012773133
158	0x3dfa6386	0.12226014
159	0xbd8ef12b	-0.06979593
160	0x3cde6335	0.027146915
161	0x3ddcfca9	0.107903786
162	0xbb65f791	-0.0035090188
163	0x3d284ab3	0.041086864
164	0x3d7a7d38	0.061154574
165	0x3ddcf5e7	0.1078909
166	0x3dbd595b	0.09245559
167	0xbd6b97b8	-0.057517737
168	0x3cb8c084	0.022552736
169	0x3c96bf0c	0.018401645
170	0xbdec7363	-0.11545446
171	0x3e0071f1	0.12543465
172	0xbda159f4	-0.07878485
173	0x3ddd5cde	0.10808729
174	0xbd865802	-0.06559755
175	0xbe3b6e7c	-0.18303865
176	0x3dd0415a	0.10168715
177	0xbd0587bc	-0.03260015
178	0x3e033f86	0.12817201
179	0x3bc77578	0.0060870014
180	0x3dadf035	0.084930815
181	0x3d8720c2	0.06598045
182	0xbd8e1ebc	-0.06939456
183	0x3cab4437	0.02090655
184	0xbcc829f6	-0.024434071
185	0x3d048271	0.03235096
186	0xbd7c9d22	-0.06167329
187	0x3d429d2f	0.047513183
188	0xbbd1ae4a	-0.0063989507
189	0x3df062cb	0.11737593
190	0xbd439aff	-0.047755238
191	0x3d330b41	0.043711904
192	0x3cbf346a	0.023340423
193	0xbd88687e	-0.06660555
194	0xbd0830ec	-0.03324978
195	0x3c1dab66	0.009623384
196	0x3d9688b6	0.07350294
197	0xbc27c051	-0.010238723
198	0x3d05cca4	0.032665864
199	0x3d9dff35	0.077146925
200	0xbd866037	-0.0656132
201	0xbca627ce	-0.020282652
202	0xbd288a57	-0.041147556
203	0x3cba0773	0.02270863
204	0xbc7d4d17	-0.015460274
205	0xbc81e21c	-0.015854888
206	0xbccb6fc1	-0.024833562
207	0x3c42b034	0.01188283
208	0xbcf05e5a	-0.029341865
209	0xbd0cb785	-0.034354705
210	0xbb18e0ce	-0.0023327353
211	0xbcf884a4	-0.030336685
212	0x3d826e73	0.06368723
213	0xbdb0f906	-0.086412475
214	0x3cdffef4	0.02734325
215	0x3d5f657b	0.05454014
216	0x3d8139f6	0.06309883
217	0xbc912370	-0.017717093
218	0xbce7d0a9	-0.02829774
219	0x3dba778e	0.091048345
220	0xbd34e59d	-0.04416429
221	0x3c96a0d6	0.01838724
222	0xbd272511	-0.040806834
223	0x3c8d55d4	0.01725284
224	0x3d70df5f	0.058806773
225	0xbd2cdc90	-0.042202532
226	0x3d6d9378	0.058001965
227	0x3a3eceff	0.00072787696
228	0xbda44925	-0.08021764
229	0x3da43bdf	0.08019232
230	0xbddb5845	-0.107101955
231	0x3c8aca93	0.016942298
232	0x3c389580	0.011266112
233	0xbd4b06b4	-0.04956694
234	0x3d9eb91f	0.07750153
235	0x3d82d5de	0.06388448
236	0xbd964f3c	-0.073393315
237	0x3d2a2193	0.041535925
238	0xbd8836fb	-0.06651112
239	0xbd4a5c46	-0.049404405
240	0x3c598929	0.01327733
241	0xbcf152fe	-0.02945852
242	0x3caadb9d	0.020856673
243	0xbd912845	-0.07087759
244	0x3ccfa858	0.025348827
245	0x3c1c05c5	0.00952286
246	0xbc1e4f4e	-0.009662462
247	0x3d972a09	0.073810644
248	0x3d62d371	0.055377427
249	0xbd921a62	-0.07133938
250	0xbcfdabf8	-0.03096579
251	0x3d0cbde8	0.034360796
252	0x3c2c6671	0.010522471
253	0xbd97b3ee	-0.07407366
254	0xbc003e90	-0.007827416
255	0xbd0e9f4f	-0.034819897
